…
                """
                OPT系列模型的word_embed_proj_dim为embedding层的输出维度，
                通常在transformer模型中也就等于 hidden_size，
                v_head将基于主干网络的输出特征 hidden_state 进行分值预测，共输出max_seq_len个分值
                """
                self.v_head = nn.Linear(self.config.word_embed_proj_dim,
                                        1,
                                        bias=False)
            ···
            """base_model即为主干网络，因此RM最终由1个主干网络和1个线性层构成"""
            self.rwtranrsformer = base_model

RM的模型结构基本如下所示(此处的基座模型为“facebook/opt-125m”)，由主干网络rwtransformer及输出头v_head组成：

    RewardModel(
      (v_head): Linear(in_features=768, out_features=1, bias=False)
      (rwtranrsformer): OPTModel(
        (decoder): OPTDecoder(
          (embed_tokens): Embedding(50272, 768, padding_idx=1)
          (embed_positions): OPTLearnedPositionalEmbedding(2050, 768)
          (final_layer_norm): LayerNorm((768,), eps=1e-05, elementwise_affine=True)
          (layers): ModuleList(
            (0-11): 12 x OPTDecoderLayer(
              (self_attn): OPTAttention(
                (k_proj): Linear(in_features=768, out_features=768, bias=True)
                (v_proj): Linear(in_features=768, out_features=768, bias=True)
                (q_proj): Linear(in_features=768, out_features=768, bias=True)
                (out_proj): Linear(in_features=768, out_features=768, bias=True)
              )
              (activation_fn): ReLU()
              (self_attn_layer_norm): LayerNorm((768,), eps=1e-05, elementwise_affine=True)
              (fc1): Linear(in_features=768, out_features=3072, bias=True)
              (fc2): Linear(in_features=3072, out_features=768, bias=True)
              (final_layer_norm): LayerNorm((768,), eps=1e-05, elementwise_affine=True)
            )
          )
        )
      )
    )

2.4 DataCollator及RM所需输入形式
phase2使用的数据整理器data_collator为DataCollatorReward()，
本阶段取出的单个样本example实际上是一个chosen-rejected数据对（见下方代码块）

1.即1个大小为batch_size的batch取出了batch_size个数据对，
data_collator将把数据对拆成chosen_sentence和reject_sentence（example一分为二），
因此实际上1个batch真正输入模型的数据量大小应当为“batch_size * 2”

代码实现上，通过step2_reward_model_finetuning/main.py#L236可以看到
…
